schnet_qm9.pt (torch, 968418 bytes, 44 tensors)

embedding.weight f4 [100, 128]
000000 00 00 00 00 00 00 00 00 00 00 00 00 00 00 00 00
       0.0 0.0 0.0 0.0
000010 00 00 00 00 00 00 00 00 00 00 00 00 00 00 00 00
       0.0 0.0 0.0 0.0
000020 00 00 00 00 00 00 00 00 00 00 00 00 00 00 00 00
       0.0 0.0 0.0 0.0
000030 00 00 00 00 00 00 00 00 00 00 00 00 00 00 00 00
       0.0 0.0 0.0 0.0
000040 00 00 00 00 00 00 00 00 00 00 00 00 00 00 00 00
       0.0 0.0 0.0 0.0
000050 00 00 00 00 00 00 00 00 00 00 00 00 00 00 00 00
       0.0 0.0 0.0 0.0
000060 00 00 00 00 00 00 00 00 00 00 00 00 00 00 00 00
       0.0 0.0 0.0 0.0
000070 00 00 00 00 00 00 00 00 00 00 00 00 00 00 00 00
       0.0 0.0 0.0 0.0
000080 00 00 00 00 00 00 00 00 00 00 00 00 00 00 00 00
       0.0 0.0 0.0 0.0
000090 00 00 00 00 00 00 00 00 00 00 00 00 00 00 00 00
       0.0 0.0 0.0 0.0
0000a0 00 00 00 00 00 00 00 00 00 00 00 00 00 00 00 00
       0.0 0.0 0.0 0.0
0000b0 00 00 00 00 00 00 00 00 00 00 00 00 00 00 00 00
       0.0 0.0 0.0 0.0
0000c0 00 00 00 00 00 00 00 00 00 00 00 00 00 00 00 00
       0.0 0.0 0.0 0.0
0000d0 00 00 00 00 00 00 00 00 00 00 00 00 00 00 00 00
       0.0 0.0 0.0 0.0
0000e0 00 00 00 00 00 00 00 00 00 00 00 00 00 00 00 00
       0.0 0.0 0.0 0.0
0000f0 00 00 00 00 00 00 00 00 00 00 00 00 00 00 00 00
       0.0 0.0 0.0 0.0
000100 00 00 00 00 00 00 00 00 00 00 00 00 00 00 00 00
       0.0 0.0 0.0 0.0
000110 00 00 00 00 00 00 00 00 00 00 00 00 00 00 00 00
       0.0 0.0 0.0 0.0
000120 00 00 00 00 00 00 00 00 00 00 00 00 00 00 00 00
       0.0 0.0 0.0 0.0
000130 00 00 00 00 00 00 00 00 00 00 00 00 00 00 00 00
       0.0 0.0 0.0 0.0
000140 00 00 00 00 00 00 00 00 00 00 00 00 00 00 00 00
       0.0 0.0 0.0 0.0
000150 00 00 00 00 00 00 00 00 00 00 00 00 00 00 00 00
       0.0 0.0 0.0 0.0
000160 00 00 00 00 00 00 00 00 00 00 00 00 00 00 00 00
       0.0 0.0 0.0 0.0
000170 00 00 00 00 00 00 00 00 00 00 00 00 00 00 00 00
       0.0 0.0 0.0 0.0
000180 00 00 00 00 00 00 00 00 00 00 00 00 00 00 00 00
       0.0 0.0 0.0 0.0
000190 00 00 00 00 00 00 00 00 00 00 00 00 00 00 00 00
       0.0 0.0 0.0 0.0
0001a0 00 00 00 00 00 00 00 00 00 00 00 00 00 00 00 00
       0.0 0.0 0.0 0.0
0001b0 00 00 00 00 00 00 00 00 00 00 00 00 00 00 00 00
       0.0 0.0 0.0 0.0
0001c0 00 00 00 00 00 00 00 00 00 00 00 00 00 00 00 00
       0.0 0.0 0.0 0.0
0001d0 00 00 00 00 00 00 00 00 00 00 00 00 00 00 00 00
       0.0 0.0 0.0 0.0
0001e0 00 00 00 00 00 00 00 00 00 00 00 00 00 00 00 00
       0.0 0.0 0.0 0.0
0001f0 00 00 00 00 00 00 00 00 00 00 00 00 00 00 00 00
       0.0 0.0 0.0 0.0
000200 b4 fa 0c bf f0 1e d8 3f d9 f8 a8 bd 60 f2 4f c0
       -0.5507004 1.6884441 -0.08250589 -3.2491684
000210 e4 65 ad bf 27 a4 91 3e 0f dc 4c bd 66 7d 62 3d
       -1.354672 0.2844555 -0.05001455 0.05529537
000220 53 a6 0c 3f 1b d3 82 3f 95 5d 53 3f 78 3b 97 bd
       0.5494129 1.0220674 0.8256467 -0.0738439
000230 72 b2 06 3f aa 77 6d bf fe 84 34 3e 3f bf ae be
       0.52616036 -0.9276072 0.17628857 -0.34130284
000240 94 92 54 3f 67 f3 8e be 6a d9 1d bf 36 b3 a3 be
       0.8303616 -0.27920076 -0.6165987 -0.31972665
000250 83 fb cb bf af 5a 13 bf 40 9f 8c bf fb 94 ad bd
       -1.593613 -0.5756025 -1.0986099 -0.084756814
000260 09 54 3a bf 8e b8 24 3e 0b f5 d0 3f 25 69 b0 be
       -0.7278448 0.16086027 1.6324781 -0.3445522
000270 12 9e e5 3e a4 06 a9 3f 00 f4 87 3f 76 e9 fa bf
       0.4484716 1.3205152 1.0621338 -1.9602497
000280 b7 97 1e bf 5e c3 13 3f 9a f3 09 bf 69 d2 20 bf
       -0.6195025 0.5771998 -0.5388733 -0.6282106
000290 b3 df ec be 75 f1 76 be a8 bb 2f 3e b7 10 89 bf
       -0.4626442 -0.24115546 0.17161429 -1.0708226
0002a0 78 c8 7f 3f a3 f7 ee 3f 74 e2 36 bf 4e 4a af 3c
       0.99915266 1.8669323 -0.7143929 0.021397736
0002b0 7b 0d 5f bf 5d 4e a6 bf 62 72 83 bf cf 05 8e bf
       -0.87129945 -1.2992665 -1.0269282 -1.1095523
0002c0 14 a5 7a bf f6 bc f8 be 0f 7e 2d 3f 2f b8 dd be
       -0.9790814 -0.48581666 0.67770475 -0.43304583
0002d0 bd 8a 38 be 41 fa a3 be 82 86 93 3f f4 a7 b2 bf
       -0.18021674 -0.32026866 1.1525424 -1.3957505
0002e0 b2 36 8e bf ca 53 b6 be aa 1a cf be 2e 05 1f bf
       -1.1110442 -0.356108 -0.4045003 -0.6211728
0002f0 39 f4 39 3c f4 7c 73 bd aa 8e 99 3f 50 8e 9d 3e
       0.011349731 -0.059445336 1.1996663 0.30772638
000300 6d 34 fa bf c2 8a ac 3f aa 0a e4 bf 1e 05 d6 be
       -1.9547249 1.3479846 -1.7815754 -0.4180078
000310 fd 0c 9e 3e ac f2 bd bf 89 78 8c 3d 3d 3e 96 bf
       0.30869284 -1.4839683 0.06858928 -1.1737744
000320 ea 87 1a 3f 4c 39 90 3f 71 85 00 c0 e1 e4 81 3f
       0.6036364 1.1267486 -2.0081446 1.0147973
000330 24 71 e2 3f 7e 49 03 be 81 60 da be 43 9d 12 bf
       1.7690778 -0.12821004 -0.42651752 -0.5727121
000340 80 e3 b2 3e 27 ce e6 be b7 fb 0b 3f fd 66 2c bc
       0.34939194 -0.45079157 0.5468096 -0.010522601
000350 7a b9 c0 bd 20 98 e1 bf 35 f1 c6 3e 3f 59 93 3d
       -0.09410377 -1.762455 0.388559 0.07194757
000360 f1 65 97 3e 71 3b 7d bf 0e c7 80 3e 6c 3d 9c 3f
       0.29569963 -0.98918825 0.25151867 1.2206244
000370 c5 91 bc 3e cb 3a b4 3d a1 05 9f 3f 1a dc 8a bf
       0.36829963 0.08800276 1.2423593 -1.084842
000380 74 76 9d 3f 92 6b 0c 40 ee 91 e5 bf 17 73 48 bd
       1.2301774 2.1940656 -1.7935159 -0.048937883
000390 df 01 16 3c cf 01 df be 02 e4 0c c0 48 ed 04 3e
       0.00915572 -0.43556067 -2.2014165 0.1298114
0003a0 b3 3b e2 3c 74 2c 34 3d 9d 67 b7 bf d1 f6 60 3f
       0.027616357 0.043987706 -1.4328495 0.8787661
0003b0 29 fa 5e 3f 3e cd 95 3d 8f 71 8c 3f d3 b4 c1 3f
       0.87100464 0.073145375 1.0972155 1.5133308
0003c0 8e b5 86 3f 3f a0 36 3d 1c 65 08 3f a1 88 a2 3e
       1.0524156 0.044586416 0.5327928 0.31744865
0003d0 87 17 a5 3e 9a ff 94 3f 3f d7 91 bf c3 97 d8 3e
       0.32244512 1.1640503 -1.1393813 0.42303285
0003e0 a8 a1 b2 bf a0 40 cf be b0 ee 6d be 85 d0 22 bf
       -1.3955584 -0.40478992 -0.23235583 -0.63599426
0003f0 e2 49 71 3d 07 e8 d5 3d 3b 5f 81 bf 62 8b 96 3f
       0.05890835 0.10444646 -1.0107187 1.1761286

distance_expansion.offset f4 [50]
000000 00 00 00 00 c7 fa 50 3e c7 fa d0 3e 15 bc 1c 3f
       0.0 0.20408164 0.40816328 0.6122449
000010 c7 fa 50 3f bc 9c 82 3f 15 bc 9c 3f 6e db b6 3f
       0.81632656 1.0204082 1.2244898 1.4285715
000020 c7 fa d0 3f 20 1a eb 3f bc 9c 02 40 69 ac 0f 40
       1.6326531 1.8367348 2.0408163 2.244898
000030 15 bc 1c 40 c2 cb 29 40 6e db 36 40 1b eb 43 40
       2.4489796 2.6530614 2.857143 3.0612247
000040 c7 fa 50 40 73 0a 5e 40 20 1a 6b 40 cc 29 78 40
       3.2653062 3.4693878 3.6734695 3.877551
000050 bc 9c 82 40 93 24 89 40 69 ac 8f 40 3f 34 96 40
       4.0816326 4.2857146 4.489796 4.6938777
000060 15 bc 9c 40 eb 43 a3 40 c1 cb a9 40 97 53 b0 40
       4.897959 5.102041 5.3061223 5.510204
000070 6d db b6 40 44 63 bd 40 1a eb c3 40 f0 72 ca 40
       5.7142854 5.9183674 6.122449 6.3265305
000080 c6 fa d0 40 9c 82 d7 40 73 0a de 40 49 92 e4 40
       6.530612 6.7346935 6.9387755 7.142857
000090 1f 1a eb 40 f5 a1 f1 40 cc 29 f8 40 a2 b1 fe 40
       7.3469386 7.55102 7.755102 7.9591837
0000a0 bc 9c 02 41 a7 e0 05 41 92 24 09 41 7d 68 0c 41
       8.163265 8.367347 8.571428 8.77551
0000b0 68 ac 0f 41 54 f0 12 41 3f 34 16 41 2a 78 19 41
       8.979591 9.183674 9.387755 9.591837
0000c0 15 bc 1c 41 00 00 20 41
       9.795918 10.0

interactions.0.mlp.0.weight f4 [128, 50]
000000 05 84 ed 3c ca 9e 5c 3e b0 66 7a 3e 76 1e e4 3d
       0.028993616 0.21544948 0.24453235 0.111386225
000010 f1 0a 16 3b fe f8 73 3e 9a e2 48 3e 62 f7 06 3e
       0.0022894705 0.23825452 0.19617692 0.13180307
000020 82 4f b4 3d 00 a7 15 be 7d 5f c4 3d 69 28 16 be
       0.088042274 -0.14614487 0.095885254 -0.14663853
000030 f9 ab b0 bd 55 98 16 3e 36 6b da 3a 3e 95 8c bd
       -0.08626551 0.14706548 0.0016664031 -0.06864403
000040 b8 de bf bd b5 aa 16 be a5 f7 81 b9 f3 d7 19 be
       -0.09368652 -0.14713557 -0.00024789307 -0.15023784
000050 f9 ca 32 3c a8 07 00 3d 35 90 5d bd 30 6a 1c be
       0.01091265 0.0312573 -0.054092605 -0.15274882
000060 cb dc f1 bd a0 7c 53 bc 1d fb d5 3d 2c 3f ab bd
       -0.11809691 -0.012908131 0.10448287 -0.083616585
000070 c4 26 b2 bd d4 90 dd 3d 96 cb 25 be 04 71 3c 3d
       -0.086988 0.108186394 -0.16190943 0.046006218
000080 f8 f3 98 bd dc c3 54 bd d7 bb 25 3d ac ea 43 3d
       -0.07468408 -0.0519446 0.04046234 0.047831222
000090 41 97 c1 3d e6 5d 9d 3d 36 07 b5 bd f4 92 bd bc
       0.094526775 0.07683925 -0.08839266 -0.023141362
0000a0 c6 94 8c 3c 88 6e 2f 3d 25 e4 88 be 7d e9 93 bc
       0.017160784 0.04283002 -0.2673656 -0.018055672
0000b0 9c 5c 47 be 85 87 4d be 23 aa 8f be f4 23 2b be
       -0.19468921 -0.20071228 -0.28059492 -0.16712934
0000c0 11 63 2b be db e9 75 be 46 6e 7f bd fd 0e a9 bd
       -0.1673701 -0.2401499 -0.062361024 -0.08254812
0000d0 bd d7 91 3d e3 eb 3f bc 68 dd 59 be 69 4b 84 be
       0.07121227 -0.011713955 -0.21275866 -0.25838783
0000e0 b8 b1 22 be 91 14 47 3e e9 9b e6 3c 93 4d 69 3d
       -0.15888107 0.19441439 0.028150516 0.056958746
0000f0 0a 0f ba 3d 4b 26 14 be 12 b2 b7 3d af 8a 2b be
       0.090849 -0.14467733 0.08969511 -0.16752122
000100 63 c0 0e 3d 0e ae 06 bd ec e6 12 3d 7c ac da 3d
       0.034851443 -0.032880835 0.035864756 0.1067743
000110 98 9a 9c bd e9 1c 92 bd fd f0 07 3e 0d 31 b9 3c
       -0.07646674 -0.071344204 0.13275523 0.022606397
000120 5d 56 12 3e 30 29 08 be 3b cb a8 3d 46 f8 00 3e
       0.14290757 -0.13296962 0.08241888 0.12594709
000130 46 08 09 3e 0f 27 74 3b 39 9e 0a 3c 9c 1b 36 be
       0.13382062 0.0037254726 0.008460575 -0.1778397
000140 56 2a 7c bd d0 4d 40 3e 28 5a 98 3e a7 b1 b7 3d
       -0.061563812 0.18779683 0.29756284 0.08969431
000150 bc 9e ac 3e 0a c2 73 3e bc b6 d1 3d 6a 9a 30 3e
       0.33714855 0.23804489 0.10239932 0.17246404
000160 1a 6a 09 3f d5 65 05 3f 0d 81 3d 3f 49 60 59 3f
       0.53677523 0.5210851 0.7402504 0.84912544
000170 19 b3 8f 3f de dd 71 3f 42 80 ab 3f df 0d c5 3f
       1.1226531 0.9447917 1.3398516 1.5394858
000180 e5 75 df 3f 6a 74 d4 3f 24 f5 b3 3f b9 72 96 3f
       1.7457854 1.6598027 1.4059186 1.175376
000190 dc 5d df 3c 34 c7 37 3e 39 4f e8 3d fa f4 cb bd
       0.027266435 0.17947084 0.113432355 -0.09958835
0001a0 63 8d 7b 3d 6b 62 31 3d 4f ed 08 be 18 a1 ee bc
       0.061414134 0.04330675 -0.13371776 -0.02912955
0001b0 a0 e3 d7 3d b0 1c ff bd 75 62 19 be 2c 96 22 3e
       0.10541463 -0.124566436 -0.14978965 0.15877599
0001c0 2f bb e3 3d 7f a0 7b 3d ff da d2 3d 03 91 6f bc
       0.11119687 0.061432358 0.102956764 -0.014621976
0001d0 ce 5f f7 3d 61 86 30 bd 07 50 56 3d 85 b0 03 be
       0.1207882 -0.043096904 0.052322414 -0.12860306
0001e0 cd 28 1c 3e 93 7b 5c bd 1e c5 c4 3d e7 be 2b bd
       0.1524994 -0.053828787 0.096079096 -0.041930106
0001f0 77 d8 b6 bd 58 d2 df 3b 5a 46 72 bd fd 39 a5 3d
       -0.08928006 0.006830495 -0.059149124 0.08067701
000200 d4 8d e3 3d fd ff 15 3e 98 3f 46 bb 7a 9a 6f be
       0.11111036 0.14648433 -0.0030250307 -0.23398772
000210 dc 55 a9 3d 63 d2 26 3a f8 80 f3 bd 39 50 35 be
       0.082683295 0.00063637475 -0.11889833 -0.17706384
000220 b7 f1 4b be a7 ec e4 bd ed 71 94 be d3 7d 46 be
       -0.19916426 -0.1117795 -0.28993168 -0.19383936
000230 06 b6 0c be 5d ba d2 be 06 ae 98 be d4 71 db be
       -0.13741311 -0.4115781 -0.2982027 -0.4286028
000240 16 ad dd be 01 a2 43 bf 0c 7b 7e bf 2c ba 03 bf
       -0.43296117 -0.76419073 -0.99406505 -0.5145595
000250 79 f8 51 be 2a c8 82 be 40 78 9d be f4 97 85 be
       -0.20504941 -0.25543338 -0.30755806 -0.26092494
000260 5a 1a ad bd 7f 15 b0 be 9b da b3 be 26 26 ad bd
       -0.08452292 -0.343914 -0.3512772 -0.08454542
000270 8b 32 72 38 84 20 95 bd d9 28 3c be 09 b7 fe bd
       5.7744368e-05 -0.072815925 -0.18374957 -0.12437255
000280 00 8e 1d be 6a 25 35 3e 6d 0e 07 3e 91 2a 87 bd
       -0.153862 0.17690054 0.13189097 -0.06599916
000290 f5 2a aa 3d f0 73 04 bd 4c e8 18 bb d3 95 81 3d
       0.08308975 -0.03233713 -0.002333182 0.06327405
0002a0 6e e3 8d 3d f2 ca f0 bc 92 d2 28 3d 94 25 1b 3e
       0.069281444 -0.029393647 0.04121644 0.15151054
0002b0 e1 83 b6 3d d6 0c 22 3e a2 9f 0e bc a3 9d 11 be
       0.08911873 0.15825209 -0.008705052 -0.1422029
0002c0 42 b8 5c 3d b8 07 be bd cd ff 07 3e 96 84 dd bd
       0.05388666 -0.09278816 0.13281174 -0.108163044
0002d0 62 a0 21 3d 20 14 cb b9 c8 3b 0b 3e 73 1a 42 3d
       0.039459594 -0.00038734172 0.13597023 0.047388505
0002e0 58 de e2 3d 3b 63 2e be 59 ea 80 bd 1a 73 5d bd
       0.11077565 -0.17030041 -0.06294698 -0.054064848
0002f0 91 0a 72 be f9 04 36 be f7 0e d7 be d8 8d 00 bf
       -0.23636843 -0.17775334 -0.42003605 -0.50216436
000300 94 4d 1d bf 7e f1 fd be 8e 83 fa be b5 9b 70 bf
       -0.614465 -0.49598306 -0.48928493 -0.9398759
000310 f6 02 9a bf 6a be 94 bf 78 3c 96 bf 63 e1 42 bf
       -1.2032154 -1.162061 -1.1737204 -0.7612516
000320 01 e2 7e 3e bd ac 3f bc e5 20 da 3c 3d 8d 56 3e
       0.24890901 -0.011698899 0.026627013 0.20952316
000330 41 95 a8 3c 6c b5 52 3e bb f1 75 3d f4 cb 01 be
       0.020578982 0.2057702 0.060044985 -0.12675458
000340 3f c1 9d 3c 78 a6 43 ba f4 91 d0 3d 2a 68 05 3b
       0.019257186 -0.00074634654 0.10184088 0.0020356276
000350 9b ad 7b bd e4 0b 00 be f1 f3 00 3e fc 18 1d 3e
       -0.06144486 -0.12504536 0.12593056 0.15341562
000360 f9 3a 2a be 02 97 94 3d 92 0b 0f bc 67 56 f8 3d
       -0.16624059 0.07255365 -0.008730786 0.12125855
000370 ef a6 d5 bd ee 96 66 3d 1b a4 7d bc 16 05 17 be
       -0.10432231 0.05629628 -0.01548102 -0.14748034
000380 f3 aa 0e 3e 4b 0b ad bd ae 09 81 bd 84 58 ef 3d
       0.139324 -0.084494196 -0.063006744 0.11686805
000390 0a a0 f4 bc c6 86 25 3e fe f7 90 3d 35 1c df 3d
       -0.029861469 0.16164693 0.07078551 0.10894052
0003a0 44 1e 82 3d 56 5c af bc 06 a5 0b 3d 02 7c 67 3e
       0.06353429 -0.021406334 0.034092925 0.22605899
0003b0 1f 97 68 3e 3c 87 ab 3d 0f 4e 1f be 86 16 e1 3d
       0.22713898 0.08375403 -0.1555712 0.10990624
0003c0 fa 96 0d 3e 6d 01 a0 3d 2c 7d 33 be a0 40 89 be
       0.13827124 0.07812772 -0.17528218 -0.26807117
0003d0 3d 2c ad be 30 45 f4 be 37 04 ed be c8 9e e8 be
       -0.33822814 -0.47709036 -0.46292278 -0.4543364
0003e0 ee b9 4d bf b9 85 57 bf 42 6e c9 be 21 88 ae be
       -0.8036183 -0.8418842 -0.39341933 -0.34088233
0003f0 32 cd b1 be 20 aa 3f be c3 0b ba bd c2 a4 8d 3d
       -0.34726864 -0.18717241 -0.090842746 0.06916191

interactions.0.mlp.0.bias f4 [128]
000000 dc 81 bd 39 ac 3b ed 3b a9 cd 1b bd c6 34 99 bc
       0.00036145642 0.0072397795 -0.03803793 -0.018701922
000010 72 bd d7 bc 1d f1 02 3c ca 67 b0 bb 5a b7 40 b9
       -0.026335452 0.007992056 -0.0053834664 -0.0001837885
000020 1d da 60 3b e6 36 21 3c f9 12 3f 3b 99 74 ac 3c
       0.0034309693 0.009839749 0.0029155596 0.021051692
000030 dc 1e 08 bd 38 5a bb bb 15 f2 15 3c 90 cd cd 3c
       -0.033232555 -0.005717542 0.009151955 0.025122434
000040 51 df 24 bd 11 45 fe bb 3f 83 81 bc 8e d1 da bb
       -0.040252034 -0.007759698 -0.015809653 -0.006677813
000050 99 b8 a0 ba 92 c4 e0 bc 2d 7b db bc 50 31 ab 3c
       -0.0012262046 -0.027437482 -0.026792133 0.020897537
000060 a0 c9 bb 3b 84 3d aa bc a5 08 99 bc 7f b8 0b bb
       0.0057308227 -0.020781286 -0.01868088 -0.0021319685
000070 b7 91 a0 bc 49 83 99 3a 75 18 1e bd fc 1e f1 3b
       -0.019600732 0.00117121 -0.038597543 0.00735843
000080 46 37 4b 3a 19 78 a4 bb ae bd 8d 3b 6d 9a a9 ba
       0.0007752072 -0.0050191996 0.00432559 -0.0012939699
000090 b5 dd 07 bd 6f 65 c5 3c b3 e2 59 bb c7 7c 79 3c
       -0.03317042 0.024096219 -0.0033246696 0.015227503
0000a0 5b 9c c9 bc 67 f4 82 bc d8 52 94 3c a7 a6 b6 bc
       -0.024610689 -0.01598568 0.01810591 -0.022296263
0000b0 65 22 da bb c2 38 59 3c 9c d0 47 3c 0b a2 36 bd
       -0.006656932 0.013258161 0.012195732 -0.04458813
0000c0 15 d8 59 bc 35 50 22 bc 4e 07 0c 3d 2f 5b f2 3c
       -0.013296147 -0.009906818 0.034186654 0.029584495
0000d0 8f e7 57 bd c8 6e 9d bc 54 d7 21 bc 75 c5 eb bb
       -0.052711066 -0.019217864 -0.009877998 -0.0071951696
0000e0 31 3c 2d 3b f6 f5 93 3b 43 ce 7c 3c bf 0f a0 3b
       0.0026433582 0.004515405 0.015430036 0.0048846896
0000f0 48 e0 3a bd 56 bc 0e 3a 86 f3 a7 3c a8 49 35 3c
       -0.045624048 0.00054449344 0.020501863 0.011064924
000100 aa bc 56 bb a9 de b0 3a 11 9f 37 bd bc 10 21 3c
       -0.003276626 0.0013494092 -0.044829432 0.00983065
000110 b8 b3 85 3c cf e1 46 bc ac 5e 3c 3c 71 f1 79 bc
       0.016321048 -0.012138798 0.011497181 -0.015255318
000120 5e ee cb bc 86 f9 65 3c d6 77 b0 bc f6 1e 88 bc
       -0.024893936 0.014036542 -0.021541517 -0.016616326
000130 0c a1 ef bc a0 50 eb bc 90 86 b7 bc 6b 63 a6 3c
       -0.029251598 -0.028724968 -0.022403032 0.020311078
000140 94 d3 bb 3c cd ee 9a 3c 0e 17 fc 3c c8 75 b1 3c
       0.022928037 0.018912697 0.030772712 0.021662608
000150 88 74 8a bc 8c 3b 09 bd 20 d1 fa 3b 4c b8 83 bc
       -0.01690127 -0.033504054 0.007654324 -0.01607909
000160 f1 da d7 bc ff ed db bc d6 ee e5 3c 1a 4b e2 ba
       -0.026349517 -0.026846884 0.028067987 -0.0017264814
000170 8c 07 11 bc 08 b4 89 3c 25 ec d1 3b 82 d3 11 bd
       -0.008851897 0.016809478 0.0064063244 -0.0356021
000180 60 cb e0 bb da ee 20 bd 0e 1a 5b bc 05 cb 8d 3c
       -0.0068601817 -0.039290287 -0.013372911 0.017308721
000190 de e9 f2 3a a2 cd 67 bc 56 5a af bc 85 f7 9d 3c
       0.0018532833 -0.014148148 -0.02140538 0.019283066
0001a0 22 de 5c 3c 3a 47 13 3d ed 22 1c bb b7 8a 04 bd
       0.013480695 0.0359566 -0.0023824528 -0.03235885
0001b0 9f a9 45 3d 88 5a 4b bb 1b 91 77 bb 56 ac 71 39
       0.048257466 -0.0031029303 -0.0037775699 0.00023047751
0001c0 55 79 65 bc 32 70 01 bd 41 ba 21 bc 5c d3 15 ba
       -0.014005979 -0.03160114 -0.009871067 -0.0005715394
0001d0 7d 09 1c 3b be 91 5f 3c 82 da d0 3b b5 77 9f bc
       0.0023809366 0.0136455875 0.0063737044 -0.01946626
0001e0 09 91 0e 3d d1 5e dc 3c b9 90 17 bd d5 07 16 3d
       0.034806285 0.02690068 -0.037003253 0.036628563
0001f0 0f 8f 0a bc b4 a7 54 bc 0c fc 8c bc 5a 2f 36 3c
       -0.008456959 -0.012979437 -0.017210029 0.011119688

interactions.0.mlp.2.weight f4 [128, 128]
000000 af ba 3e bd b5 85 b5 3d 68 77 97 bb ec 3e 22 be
       -0.046564754 0.08863393 -0.0046223886 -0.15844315
000010 2e 04 24 bd e5 67 45 bb 70 56 fa 3d c1 c6 cc 3d
       -0.04004305 -0.003012174 0.12223518 0.09998847
000020 75 64 95 bd 40 28 b6 bd 19 2c 76 3d e3 5d 1a be
       -0.07294551 -0.08894396 0.06010065 -0.15074877
000030 f0 27 a3 3d 00 db dd 3d 8c 84 24 3c 41 2a 5b bd
       0.07966602 0.108327866 0.010041367 -0.053507093
000040 d4 73 9c bd 30 c9 98 bc 22 30 6a bd 28 b7 f9 bd
       -0.0763928 -0.018650621 -0.05717481 -0.121931374
000050 a3 dd 83 bc f3 fa 10 be 0a 76 a9 3d 85 93 e5 bd
       -0.016096896 -0.1415823 0.08274467 -0.11209778
000060 e2 9f 4c 3d ca b6 90 3d 90 37 7b 3d 81 78 90 3d
       0.049957164 0.07066114 0.061332285 0.07054234
000070 de af 56 bc 15 3b cf bd 7b 89 d1 3d 87 cb 32 3e
       -0.013103453 -0.10118691 0.102313004 0.17460452
000080 54 45 c9 3d fb e9 ae 3d 8b c0 c7 3d f8 8d 33 be
       0.098276764 0.08540722 0.097535215 -0.17534626
000090 66 51 91 bd bc 35 7e bd 7d f0 dc 3d 0e 58 14 3d
       -0.07095604 -0.062062964 0.10788057 0.036216788
0000a0 47 47 ba 3d 7d e6 b4 bc 85 d7 ad 3d 31 be e7 bc
       0.09095626 -0.022082562 0.08488373 -0.028288933
0000b0 68 c4 14 be 86 72 90 bd 68 be d0 3d 40 a7 a9 3c
       -0.14528048 -0.070530936 0.10192567 0.020709634
0000c0 af 82 08 be 3a 14 9f bd ce 5b 3a 3c 17 4a 12 be
       -0.13331102 -0.0776753 0.011374427 -0.14286076
0000d0 ca eb 94 3d bb 3c 65 bd 05 66 c3 3c 27 3e 72 bd
       0.07271536 -0.05596612 0.023852358 -0.059141304
0000e0 90 33 59 bd 9d fd 3a 3e df a8 df 3d f8 3d 04 bd
       -0.05302769 0.18260808 0.109208815 -0.03228566
0000f0 74 57 a8 bd 7d 16 bd 3d 0f 9c db 3c 03 ea d9 3c
       -0.08219805 0.09232805 0.026807813 0.026600843
000100 25 85 1d bd 2b 25 ba bd 73 81 d8 3d 89 7d 7d 3d
       -0.038457055 -0.090891205 0.105715655 0.061887298
000110 47 58 87 bd 3a 46 a7 ba 95 42 14 bd 68 5b 8b bd
       -0.066086344 -0.0012762018 -0.03619631 -0.06804544
000120 34 c3 0c be ae d6 d6 bd ff bd b1 3d 39 8a 0f be
       -0.13746339 -0.10490166 0.08678817 -0.14017572
000130 c5 0b 02 3e 94 5d 13 bd f9 89 2f 3d a1 aa 40 bd
       0.12699802 -0.035977915 0.04285619 -0.047037724
000140 c6 43 a5 bd 86 2e cf 3d 3e fd c1 3d 3f 2c 2c 3e
       -0.080695674 0.101162955 0.0947213 0.16813754
000150 31 62 23 3e 31 34 5c 3d 98 f7 18 3d cb 75 63 be
       0.15955426 0.05376071 0.0373455 -0.22212903
000160 a8 f0 8f bd c8 a6 99 bd ce 7d 03 3c b6 82 cb 3b
       -0.070283234 -0.07502514 0.0080256 0.0062106503
000170 4d 57 d9 bd f2 d2 34 3d dd 74 6f be 16 a6 89 bd
       -0.106123544 0.044146486 -0.23384424 -0.067211315
000180 f5 5f 1b be db 72 e0 bc 5d 04 ec bd f2 10 e6 3d
       -0.15173323 -0.027398517 -0.1152427 0.11233701
000190 5d 9a 61 ba 1a d0 20 3d f1 88 22 3e 83 3d 80 bd
       -0.0008606071 0.03926096 0.15872552 -0.062617324
0001a0 bd b6 13 be d8 94 10 be 35 a3 01 3e 29 e2 63 3d
       -0.14425178 -0.1411928 0.12659915 0.055635605
0001b0 14 03 57 bc b5 f6 35 3e b6 96 58 bd 5e 09 94 3d
       -0.0131232925 0.17769893 -0.052878104 0.07228349
0001c0 3e 9e 25 bd 8e 6a 34 3e d9 92 8e bd f8 93 8e 3d
       -0.040434115 0.17618772 -0.06961603 0.069618165
0001d0 a8 52 d5 bd 8c 24 a1 bd 93 80 e2 bc 6f 53 69 3c
       -0.10416156 -0.07868299 -0.0276492 0.0142410835
0001e0 41 d9 ab bd d7 0d 87 3d 33 1b 93 bd db 98 46 bd
       -0.08391047 0.065944366 -0.07182922 -0.048485618
0001f0 a6 05 d3 bd d0 05 1f 3e bf 9d c1 bc af 8a c5 bd
       -0.10303812 0.15529561 -0.02363479 -0.096455924
000200 a2 9b 3e 3e fa 2d 06 be 8a 9b ee bd 54 35 06 be
       0.18614057 -0.13103476 -0.116507605 -0.1310628
000210 68 b1 62 bd b9 09 0d be 3f 62 1a be c7 f0 cd 3d
       -0.05534497 -0.1377324 -0.1507654 0.1005569
000220 15 0b 5d bd ef 65 af 3d 37 3c a9 bd a2 eb ba 3d
       -0.053965647 0.08564364 -0.08263438 0.09126975
000230 c2 b4 48 be 6b 31 0d 3e 3f dd 0d 3e d3 01 bb 3d
       -0.19600204 0.13788383 0.1385393 0.09131207
000240 c4 11 ee bd f9 31 99 3d bb 80 87 3d d3 1d 9c bd
       -0.11624482 0.07480235 0.0661635 -0.07622876
000250 5e 00 4d 3d c9 f7 f7 3d d1 23 2f 3d c0 5e 0a 3b
       0.05004918 0.12107808 0.042758767 0.0021113604
000260 3d 4e 06 3d f6 b1 15 be 0f c6 01 3e c5 96 3c bd
       0.032789458 -0.14618668 0.1267321 -0.046042223
000270 3b 1a a4 bd 2f 02 8e 3d 62 51 93 bd ff e9 ae 3d
       -0.080128156 0.0693401 -0.07193257 0.08540725
000280 de 59 00 be 55 6e ca 3d d3 dd 0c 3d 86 0f a1 3d
       -0.12534282 0.098843254 0.034391236 0.07864289
000290 d8 c9 80 3d 16 09 1e 3e 4a c9 27 3c 69 72 02 bd
       0.06288499 0.15433154 0.010240862 -0.03184739
0002a0 a9 de 8f 3d 49 52 04 be b9 ee 83 3c a3 9f 64 3d
       0.07024891 -0.12922014 0.016105043 0.055816304
0002b0 e9 5a e7 3d 87 83 94 bb b7 85 9f bd cc 4b ff 3d
       0.112966366 -0.004532281 -0.07789176 0.12465629
0002c0 08 8b 3b be 83 6a 8f 3d b8 0e 07 3e 6a aa a8 3d
       -0.18314755 0.070027374 0.13189209 0.08235629
0002d0 c3 88 c0 3d 15 b4 83 3d 2a 82 ad 3d b5 a8 bf bd
       0.09401085 0.06430832 0.084720924 -0.0935835
0002e0 17 c1 97 bd bf 75 f1 3d f7 f5 4f be 16 ea e7 3d
       -0.07409876 0.117900364 -0.20308672 0.11323945
0002f0 aa 5e 21 3d f7 5e 63 3b d0 8b f4 bd f9 01 d7 3c
       0.03939692 0.0034694055 -0.119407296 0.026246058
000300 1e c6 95 3c 1d 3d 0b be 33 20 b8 bd 9a 7d 1b 3d
       0.018282946 -0.13597532 -0.089905165 0.03796158
000310 db 3d 16 3d a3 bd dd bd b7 cc ce 3d 24 eb 9f 3c
       0.036680084 -0.10827186 0.1009764 0.019521303
000320 ba 2f cf bd 0e 8f 26 3e 53 b9 b2 bd c8 89 48 be
       -0.10116525 0.16265509 -0.08726754 -0.1958381
000330 66 48 33 be ad 31 c6 3d 3b ce 0a 3e 01 97 c1 3b
       -0.17508087 0.09677444 0.13555233 0.0059078936
000340 e9 ba 3b 3e 86 ca a3 bd 32 ed a4 3c 58 3a ac bd
       0.1833302 -0.07997613 0.020132635 -0.08409566
000350 03 25 ca 3d 75 c8 2b 3d 11 a3 2a 3d ad 3f 3a 3c
       0.09870341 0.041939218 0.04165942 0.011367721
000360 fc 68 07 be 2c cb 06 3d 66 0d 9b 3a c6 ba 0f 3e
       -0.13223642 0.032908604 0.0011829555 0.14036092
000370 ac 36 1d 3d a4 81 06 be d4 0b 42 3d 5d 1c 35 3d
       0.038382217 -0.13135391 0.04737456 0.044216502
000380 d1 21 52 bd 22 3c 8d bb 40 7e e8 3c 69 e3 ad bc
       -0.05130178 -0.004310147 0.028380513 -0.021226602
000390 1c 76 16 bd e6 00 c4 bd 1a 2b f0 3d fb 5f 1b 3d
       -0.03673373 -0.09570484 0.11726971 0.03793333
0003a0 1e 0b b7 3c b0 3c 2d bd 1d 31 43 bc 48 2f 5e bd
       0.022344168 -0.042294204 -0.011913565 -0.05424431
0003b0 34 04 a3 3d 2f 2f e0 3d d5 68 33 be 9b d6 0e be
       0.07959786 0.109464996 -0.17520459 -0.13949053
0003c0 f8 98 61 3d 54 1f d9 3c c1 73 af 3d 08 ff d5 3c
       0.055077523 0.026504196 0.08567 0.026122585
0003d0 d0 f0 98 bd 2b 60 a9 bd 63 3b db 3d d4 a0 25 be
       -0.07467806 -0.08270296 0.107046865 -0.16174632
0003e0 12 a6 03 be bd 63 09 bd a7 60 45 bd 87 f5 25 3d
       -0.1285632 -0.033542383 -0.048187878 0.040517356
0003f0 31 27 85 3d b2 15 2c bd 93 43 3a 3d 12 3f 90 3d
       0.06501616 -0.042012878 0.0454746 0.0704328

interactions.0.mlp.2.bias f4 [128]
000000 7a 59 8d 3c b0 7c dc ba cb 70 10 3c ba 44 13 3c
       0.01725458 -0.0016821828 0.008815954 0.008988554
000010 60 50 43 bc ed b3 81 bb 5b 27 06 3c dc 2d 08 3c
       -0.011921018 -0.0039582164 0.008188094 0.008311715
000020 cb cc 15 3d cf ec 1f bd 4b 55 4e bb b3 98 14 bd
       0.03657226 -0.039044198 -0.0031483944 -0.036278438
000030 2b 7d 02 bc 7c 13 e5 ba f4 79 db ba cf 5b da 3b
       -0.007964413 -0.001747712 -0.0016744719 0.0066637765
000040 e6 31 6d 3c 9e 3d 2a 3c 50 59 2b bb d0 e9 94 3c
       0.014477229 0.010390667 -0.0026145764 0.018177897
000050 60 b7 58 bb 26 34 3f bd bf bd ba bb 38 ba b5 3c
       -0.0033068284 -0.046680592 -0.005698889 0.022183523
000060 f3 f3 4f ba f2 11 03 bc 56 02 38 bd ec 61 26 bd
       -0.00079327746 -0.007999884 -0.044924103 -0.04062073
000070 84 a5 92 bc ad 32 37 bc 7d 6e 47 bb 52 f9 e0 3b
       -0.01790119 -0.011181516 -0.0030430846 0.006865659
000080 82 fb cb bc d2 38 83 bc 28 1b ed bb f0 dc 03 bd
       -0.024900202 -0.016018305 -0.0072359033 -0.032193124
000090 8d 85 9f ba e3 5a dc 3b b8 59 f0 3c be 5c 5f bc
       -0.0012170539 0.0067247017 0.029339656 -0.013632951
0000a0 46 f1 0c 3d ad f5 c0 bc 53 27 43 bd c3 b3 3f bd
       0.034409784 -0.023554647 -0.047644924 -0.046802294
0000b0 b1 04 a7 bb 22 b7 c8 3b af a5 06 3b bc 0c 20 3d
       -0.005096995 0.0061253468 0.0020545532 0.039074644
0000c0 3c a9 81 3c df 6a 4c bd 2d 57 af 39 9f 75 94 bb
       0.015827768 -0.049906608 0.00033443552 -0.004530623
0000d0 31 69 b7 bb 9d 67 bf 3b ee 56 2c bd b9 05 33 3b
       -0.0055972566 0.005841209 -0.04207509 0.0027316643
0000e0 9a 07 a9 bb 39 86 5b 3c c8 8e bc 3c c7 63 dd 3c
       -0.005158377 0.0133987 0.023017302 0.027025117
0000f0 75 00 06 3c 74 08 96 bb 7d 79 da bb a7 2a 5a bc
       0.00817882 -0.0045786444 -0.0066673146 -0.013315833
000100 1f 25 71 3c fc 2f 57 3b 9e a5 b4 bd 8d 00 b1 bb
       0.014718323 0.0032834997 -0.088206515 -0.005401677
000110 a8 02 a6 3c ef b8 f3 3a 36 76 81 bb 33 37 b8 ba
       0.020264938 0.0018594543 -0.0039508594 -0.0014054537
000120 37 56 a6 3c 3e cb 08 bc af ba 3f bd da 45 2d 3c
       0.020304782 -0.008349238 -0.046808895 0.010575736
000130 eb 33 68 3b 2c a6 f6 3a dc 0c 63 3c 59 4e 39 3c
       0.0035431336 0.0018817834 0.013858046 0.011310183
000140 83 c7 93 ba 1f 76 68 3b 54 11 9a 3c 26 c6 03 3c
       -0.0011274669 0.0035470796 0.01880709 0.008042848
000150 ba bc 81 bb ad c6 ca bb ea 77 06 bc 52 4b 18 3c
       -0.0039592655 -0.006188235 -0.008207301 0.0092953015
000160 73 ea 13 3d 83 7b e6 bb 6e c3 2c 3c d9 c1 4c bb
       0.03611226 -0.0070337667 0.010544641 -0.0031243472
000170 fe 1f 1a bc 5a 03 bd 3d f3 27 bf bb fe a7 fb bb
       -0.009407042 0.09229155 -0.0058336197 -0.0076799383
000180 75 42 93 bb 92 90 af 3b bd 9c 44 bd 7b 97 08 ba
       -0.0044940063 0.0053578103 -0.04800104 -0.00052105606
000190 70 27 bb 39 4e a9 72 3d d3 30 93 bc d7 43 1e 3d
       0.00035696803 0.059243493 -0.017967617 0.038638916
0001a0 0c e9 b4 b9 08 41 41 3b e7 d5 1c bc 71 33 09 ba
       -0.0003450591 0.0029488225 -0.009572483 -0.00052338006
0001b0 8b 1e 24 3b 10 8b 8b 3b 17 2c 71 bc 1e 83 92 3b
       0.002504262 0.004258521 -0.0147199845 0.004471197
0001c0 d1 e8 2a 3d 33 dc 4a 3a e9 2e ed bb bf d6 3a 3d
       0.041725937 0.0007738501 -0.007238258 0.045614954
0001d0 44 89 00 bc d5 84 82 3d 0c dc f5 bc fa a3 f0 3b
       -0.007845227 0.06372992 -0.030012153 0.0073437663
0001e0 5b d1 b5 3c d9 69 16 bc d7 9e 6c 3c 87 26 78 bd
       0.022194555 -0.0091805095 0.014442167 -0.060583618
0001f0 dd dc 88 3c af 03 48 bb db fb 01 bb 6e 15 a4 bb
       0.016706878 -0.0030519774 -0.0019833955 -0.0050074374

interactions.0.conv.lin1.weight f4 [128, 128]
000000 c4 e8 a6 bd 80 4c 06 be 0c 4d e3 bc 56 4b 5b bd
       -0.08149865 -0.1311512 -0.0277467 -0.053538643
000010 95 08 c2 3b cb 57 ca bc 31 1f 98 3a 0e 38 0d be
       0.005921433 -0.024700066 0.0011605975 -0.13790914
000020 bc 69 8d bd ea 99 68 3d 12 83 e0 bd 08 c4 79 bd
       -0.06904933 0.05678741 -0.109625 -0.060977966
000030 29 41 39 be 92 a0 44 3d c6 29 21 3e c8 5d fc 3d
       -0.18091263 0.048004694 0.15738592 0.12322575
000040 a1 7d 59 bd 51 3e e5 3d ce ff 15 3e f8 eb e2 3c
       -0.053098325 0.111935265 0.14648363 0.02770041
000050 9e 4b c6 3d 4b da 1d bd a2 ba 13 bd f7 6c ac 3d
       0.096823916 -0.03853826 -0.03606666 0.08419221
000060 ba 2e 68 bd e4 6c 05 3b fc 49 02 3e 05 68 0f 3e
       -0.056685187 0.0020359093 0.12723535 0.14004524
000070 16 3f 51 3d 58 78 22 3d 16 2c b4 3d fc d8 b2 3d
       0.051085554 0.03966555 0.08797471 0.08732793
000080 f1 6f cc bd 47 44 d4 bd cc 78 c3 3d f1 a7 b6 bd
       -0.09982289 -0.10364585 0.095445246 -0.08918751
000090 67 6a 92 3d 17 e9 08 3e 5f 1f e6 3d 74 7a 7d 3d
       0.07149201 0.13370167 0.11236452 0.06188436
0000a0 b7 e3 09 be 6e 72 b1 bb 28 91 3e bd 76 fc e9 3d
       -0.13465773 -0.0054152524 -0.04652515 0.11425106
0000b0 82 4b a4 bb 29 e0 07 3e ca 16 99 bd 50 22 a5 bb
       -0.005013884 0.13269104 -0.0747505 -0.0050394908
0000c0 0f 4b 79 bd 5f 25 8d 3d 8a 1e ec bd 00 9d b2 bc
       -0.060862597 0.068918936 -0.11529262 -0.021803379
0000d0 03 07 73 3d 46 8c e7 bd 21 9c 30 3d 09 6d 15 3e
       0.05933286 -0.11306052 0.043117646 0.14592375
0000e0 6e cf e3 bd 1d 3d 93 bd 98 74 0d be 5d e2 00 bd
       -0.111235484 -0.07189391 -0.13814008 -0.031465877
0000f0 64 39 80 bd 24 36 92 bb b4 dd b8 3d 8c 86 e8 bd
       -0.062609464 -0.0044620205 0.090266615 -0.11353788
000100 d8 52 f7 3d 9d 1c 59 bd 8b 17 43 bd b2 85 8a bd
       0.12076348 -0.053005803 -0.047629874 -0.067637816
000110 fd a4 06 bd 59 2f b2 bd a9 9f 4c 3d 96 86 86 3d
       -0.03287219 -0.08700437 0.04995695 0.06568639
000120 b7 50 d5 bb a4 64 45 3d 5c 58 9a 3a 45 1a 44 bc
       -0.006509866 0.04819168 0.0011775601 -0.011969154
000130 20 30 84 bd 7b 0d 9f bd cc a8 86 bd dd 52 14 be
       -0.064544916 -0.07766243 -0.06575164 -0.14484735
000140 4b bd e3 b9 f1 c3 04 3e 89 b7 9a 3d d4 10 cc bd
       -0.00043437848 0.1296537 0.07554538 -0.09964147
000150 5d 01 69 bc 18 6d fc 3d 53 ff 8b bc 04 19 9e bd
       -0.014221516 0.123254955 -0.017089522 -0.07719615
000160 2e 10 2c 3d f6 8e 24 3d a7 c6 41 3c 88 55 ed bd
       0.042007618 0.0401754 0.011827148 -0.115885794
000170 d3 e7 9b 3d 5b 28 c2 3c b1 ef ba bd 41 5f 12 3e
       0.07612576 0.023700884 -0.09127749 0.14294149
000180 cc c8 b5 bd c8 1f 4d 3d 8e ad ba bc 29 9e 9d 3d
       -0.088761896 0.050079137 -0.022787835 0.07696182
000190 3f 25 1e 3d de bc f7 3d 47 18 0f bd 5f a5 0c 3e
       0.03860974 0.120965704 -0.034935262 0.13734959
0001a0 19 c8 69 bd da d5 0b be a5 77 00 3d e7 a7 ac 3c
       -0.057075594 -0.13655797 0.031364102 0.021076156
0001b0 74 0d 61 bd db 1a 00 3e 9c 24 2c bd a3 c0 b5 bc
       -0.05494447 0.12510245 -0.0420271 -0.022186583
0001c0 2a f0 21 be 6a 35 2e 3e 23 5b 64 3d 98 fd f1 3c
       -0.15814272 0.17012563 0.055750977 0.029539868
0001d0 8d bc 79 3d 49 ac dc bc ef 05 b1 bd 04 72 1c be
       0.06097083 -0.02693762 -0.0864371 -0.15277869
0001e0 62 c5 82 bd a8 71 7b bd db 23 0d 3e 1a 16 12 be
       -0.06385304 -0.061387688 0.13783209 -0.14266244
0001f0 69 6a 81 bd 96 54 3e bd 61 b9 c4 3c 33 cf ba bd
       -0.06319124 -0.046467386 0.024014177 -0.09121551
000200 ec fb 1d 3d 72 dc 33 3d a8 5d 9b bd a3 1b 4c 3c
       0.03857033 0.043911405 -0.07586223 0.012457761
000210 a6 73 13 3e aa ff bb 3d 35 be 89 bd 02 47 d4 bd
       0.14399585 0.091796234 -0.06725732 -0.10365106
000220 0b b1 c1 3d 76 a6 0f 3e 83 a8 c8 3b b6 d8 80 bd
       0.094575964 0.14028344 0.006123604 -0.06291334
000230 57 1d 34 be fb 51 cb bd 84 3e 66 3d 34 66 31 3d
       -0.17589317 -0.09927746 0.056211963 0.04331036
000240 04 cc f6 bd ff 4f de 3d 5b 10 14 bd 67 43 bd 3d
       -0.12050632 0.10855102 -0.03614841 0.092413716
000250 31 49 9d 3d 68 a9 4d 3c 39 5b 39 3d 9d 21 36 3d
       0.07679976 0.012552597 0.045253012 0.04446565
000260 92 59 16 be 90 a9 8b 3c 50 7e 1e be d4 21 58 3d
       -0.14682606 0.017048627 -0.15477872 0.052766636
000270 60 cf 8f bc 6b 47 13 3e 6d 18 1f 3b 86 90 04 3e
       -0.017554939 0.14382713 0.0024276034 0.12945756
000280 1f f1 89 3d 56 31 85 bc e1 4d d7 bd 1d ca 6e bb
       0.06735443 -0.016258877 -0.10512901 -0.0036436387
000290 de 17 0b 3d 86 4d be bd c9 f6 64 3d af 5b be bd
       0.03395831 -0.0929213 0.055899415 -0.09294831
0002a0 7c 56 06 be f1 9a 9f bd 5f fe bc bd 43 2c 75 3e
       -0.13118929 -0.077932246 -0.09228205 0.23942666
0002b0 a1 ce b7 bd dd eb 1f 3e 03 53 51 3c 4d ae 24 3e
       -0.08974958 0.15617318 0.012776139 0.16082115
0002c0 fd e9 c7 3d b7 9a 1a bd b6 ed 80 3d ed de 93 3d
       0.097614266 -0.037745204 0.0629534 0.07220254
0002d0 d2 2d c7 3d 93 b6 97 bc b2 93 58 bc ce 72 26 3e
       0.097255364 -0.018519675 -0.013218807 0.16254732
0002e0 39 22 fc bd de c5 92 3c 12 d8 43 3d 45 9b ec 3c
       -0.12311215 0.017916616 0.047813483 0.028882632
0002f0 f7 41 4b bd 79 b3 73 bc 46 48 49 3d ab 15 8d 3d
       -0.049623456 -0.014874333 0.04914119 0.068888985
000300 a2 63 bf bd 37 77 80 bd b1 18 05 be 5d 08 55 3b
       -0.09345175 -0.062727384 -0.129977 0.0032506206
000310 2c 3d 6f bd 47 c5 23 3e 39 ec 3c 3d 21 77 21 bd
       -0.058407947 0.15993224 0.046123717 -0.03942025
000320 5d 80 0e be fa 0d b2 3d d6 78 7f 3d d8 92 bf bd
       -0.13916154 0.08694072 0.062371098 -0.0935418
000330 d0 8c 09 be ea a8 57 3c 31 5c c8 bc 04 48 ed 3d
       -0.13432622 0.013162831 -0.024458023 0.115860015
000340 de 18 21 3d db 51 25 3c cf 88 f7 3d a3 d4 33 3d
       0.039330356 0.010090317 0.12086641 0.043903958
000350 2d eb b6 3d 64 e3 24 be d1 89 b5 3d 07 bf b9 3d
       0.08931575 -0.16102368 0.08864177 0.09069639
000360 41 1e 01 3e 94 22 fa 3b 29 b8 8a 3d 01 27 aa bd
       0.12609197 0.0076335166 0.06773407 -0.08308221
000370 33 22 0f 3e 3d f4 11 be 32 83 ba bc cf bb 1c 3d
       0.1397789 -0.14253326 -0.022767637 0.038265046
000380 bb b6 da 3d bf d4 0c be 4f 81 db bd 33 76 b7 bd
       0.10679384 -0.13753031 -0.10718023 -0.089580916
000390 82 4e 95 3c 42 06 9e bd 7b 77 00 3e d2 27 2d bc
       0.018225912 -0.07716037 0.12545578 -0.010568576
0003a0 b9 b5 e3 bc b9 08 25 bd 43 58 e2 bd 00 4c 67 3c
       -0.027796613 -0.04029152 -0.11051991 0.014117241
0003b0 23 54 56 bd a5 15 0f 3e 7a 15 05 be 36 8b c5 bd
       -0.052326333 0.139731 -0.12996474 -0.09645693
0003c0 f9 7f 8e 3d 7a 68 da 3d 7f 7e cf 3d 81 d2 63 3c
       0.069580026 0.106644586 0.10131549 0.0139051685
0003d0 61 aa cb 3c 0d 0a 89 bd d8 dc 8d bd 43 10 03 3e
       0.024861516 -0.0669137 -0.06926888 0.12799172
0003e0 97 37 e8 bd 2b c6 bc 3d 21 1a 2c be 67 cd cd bc
       -0.11338728 0.09217485 -0.16806842 -0.025122358
0003f0 95 22 5d bc bb a8 0a bd 59 1b ea 3d 16 75 6b 3c
       -0.0134970145 -0.03385232 0.114309974 0.014371177

interactions.0.conv.lin2.weight f4 [128, 128]
000000 3c a9 4c bd 1b 4d 6b 3d 82 63 48 be 13 66 4c 3d
       -0.049966082 0.05744658 -0.19569209 0.049902033
000010 ee 37 6f bc 8b bf bf 3d a0 73 86 bc 55 6b a9 3d
       -0.014600737 0.09362706 -0.016412556 0.08272425
000020 37 39 ec 3d fe 89 44 bd e1 d7 e2 bb 7a 1c f7 bd
       0.1153435 -0.047983162 -0.0069227074 -0.12065978
000030 6d ed 4b bc 8c 38 4b bd a2 e2 49 bd 7d 62 ef bb
       -0.012446743 -0.049614474 -0.0492884 -0.007305442
000040 48 18 43 bd 1c ff ef bd f4 5a 58 3d 38 33 68 3d
       -0.04763058 -0.1171858 0.052821115 0.05668947
000050 39 43 cb bc 2f 7d 55 be c1 47 b4 bd 32 fb 87 3d
       -0.024812328 -0.20848535 -0.088027485 0.066397086
000060 6f eb cd bd 9a 2f b1 3c bc 60 1a 3e 59 d7 03 be
       -0.10054671 0.021629144 0.15075964 -0.12875117
000070 67 1b 9d bd 0d e1 28 3d a6 69 af 3d 69 67 24 3d
       -0.07671242 0.04123025 0.08565073 0.040137682
000080 56 17 f0 bb 22 f3 fd 3d cf 52 6a 3e 11 67 5b bc
       -0.0073270006 0.123998895 0.22883151 -0.013391272
000090 7e 97 a3 bd d8 83 93 bd 55 fe 4e 3d 60 88 a9 bc
       -0.07987879 -0.072028816 0.05053552 -0.020694911
0000a0 80 fc 3c 3d b7 ac 3d bd 4b 6a 59 bd f8 36 85 3d
       0.04613924 -0.04630729 -0.053079884 0.06504625
0000b0 6f c0 a9 bd bf 50 96 3d 7d 14 24 be 45 09 00 3e
       -0.08288657 0.0733962 -0.1602344 0.12503536
0000c0 23 ac bb bc 3a 90 9f bd 70 7a 16 be 22 1b 78 3d
       -0.02290923 -0.07791181 -0.14695144 0.06057275
0000d0 1b 88 78 bd 7f 22 c9 3d 30 7b a8 bc 16 27 24 3c
       -0.060676675 0.09821033 -0.020566553 0.010019084
0000e0 3b 24 55 b9 8f 68 86 3d a3 71 28 3e 7d 64 14 be
       -0.0002032676 0.06562912 0.16449599 -0.14491458
0000f0 4a c2 f9 bd 79 2d 3a bc 09 ab 06 be ff 09 0e 3e
       -0.12195261 -0.011363381 -0.13151182 0.13871
000100 cb 66 6a 3e 7e 59 40 3e 4e 09 ef 3d 9f d2 bc 3d
       0.22890775 0.18784139 0.116716966 0.0921986
000110 c4 0e 28 be a2 55 52 3e b4 4d 52 3d 58 19 60 3a
       -0.16411883 0.20540479 0.051343635 0.00085486984
000120 86 05 86 3d 40 cf b6 bd fc 47 9c 37 b5 ff ae 3d
       0.06544022 -0.089262486 1.863017e-05 0.08544866
000130 e2 76 b3 bd ba ad 92 bd 4f cd ed 3d 08 6d a8 3d
       -0.087629095 -0.07162042 0.11611425 0.08223921
000140 45 64 59 3e 4b dd 4d bd 7d 9e 9a bd 9f 8a be bd
       0.21229656 -0.05025987 -0.075497605 -0.093037836
000150 ae fc 70 bc 5d 3c 88 bc 03 57 34 bd 00 c4 e1 3d
       -0.014708681 -0.016630346 -0.044028293 0.11023712
000160 cf 19 d5 3d 29 cf 06 3e de d0 14 3e 3a 85 eb bd
       0.10405313 0.13164963 0.14532802 -0.1150002
000170 2a 36 09 3d 38 e0 24 be ce 4e c0 bd 3e a3 0e be
       0.03349892 -0.16101158 -0.09390031 -0.1392946
000180 68 a8 40 3b 36 44 f9 bd 7b 17 31 3e 98 35 26 be
       0.0029397253 -0.12171213 0.17294113 -0.16231382
000190 b5 e0 45 3e ba 05 4b 3e 63 6f 07 be 1a e0 d3 bb
       0.19324 0.19826403 -0.13226084 -0.006465924
0001a0 18 69 16 3e a1 d4 39 3e 2a 8c 28 bc 3f 5d 9e 3d
       0.14688528 0.18147518 -0.010287324 0.07732629
0001b0 70 51 32 bd de 34 9b 3d 52 ea a5 3d a9 b8 89 3d
       -0.043534696 0.07578443 0.08101334 0.06724674
0001c0 cf e2 3b 3d 33 91 36 3e 2d 74 86 3d 1a ba 72 bd
       0.0458706 0.17828827 0.065651275 -0.05925951
0001d0 16 9b 7f bd b9 cd 8b 3d a5 d3 30 3b 61 5e cc 3c
       -0.06240376 0.06826348 0.0026981619 0.024947347
0001e0 e4 62 23 3d 02 ae 73 bd c1 57 2d 3d 81 01 19 bc
       0.03988923 -0.05949212 0.042320017 -0.009338737
0001f0 40 5d 8d 3d ea 7e d5 3c a8 83 fc 3d 33 5a 1f 3e
       0.06902552 0.026061494 0.12329799 0.15561752
000200 4c b4 62 3d 8f 17 ff 3d 4f aa 22 bc 7e 76 7b bd
       0.055347726 0.12455665 -0.0099283 -0.0613923
000210 16 e1 c8 bd be 3f e2 3b 4c 87 8b 3b 53 05 ad 3c
       -0.09808557 0.0069045713 0.004258072 0.021120703
000220 62 3b 12 bd 6d e1 7f 3d 1b fa 57 bd fc b2 b2 3d
       -0.035701163 0.062470842 -0.052728754 0.08725545
000230 10 4b 22 be df ca 16 3e f0 66 99 3d 6e ef 77 bd
       -0.15848947 0.14725827 0.07490337 -0.060531072
000240 12 11 1b 3e 8a 32 69 3d a0 4a b9 3d 62 3f f4 3c
       0.1514323 0.056932963 0.09047437 0.02981538
000250 43 95 15 3d 38 a2 d2 3d f3 96 15 be f8 fa 57 bd
       0.0365193 0.10284847 -0.14608364 -0.052729577
000260 8c 50 c4 bd 1b 40 41 bd d1 ee 21 3d d7 f4 0e be
       -0.095856756 -0.047180276 0.039534394 -0.13960586
000270 f8 45 4e be 6e 58 e2 bb a3 e0 1e 3d e1 76 70 bd
       -0.20143878 -0.0069075143 0.03878845 -0.05870712
000280 4c 8d 18 3e a4 88 b5 bd 0c a2 97 bd 3b 0e 7b bd
       0.1489765 -0.08863953 -0.07403955 -0.061292868
000290 ba 68 44 bd 7c ee 29 be 45 69 c6 3d e3 3a 54 3c
       -0.047951438 -0.16594881 0.09688047 0.012953493
0002a0 ce d8 25 be f3 1d 19 bd 2b 5f a8 3a 7d 82 14 be
       -0.16195986 -0.037382077 0.0012845745 -0.14502902
0002b0 61 5f c1 bd 62 a5 73 bd 88 7d 14 bd 8b 13 f4 3d
       -0.0944202 -0.059483893 -0.03625253 0.1191779
0002c0 2f ef 8e bd 50 c1 3f 3d f2 a0 ad bd 7c c7 a7 3b
       -0.069792144 0.046815217 -0.084779635 0.005120216
0002d0 7f 41 5e bd b1 18 dc bd 33 db 69 3d 06 ef 32 bd
       -0.05426168 -0.10746897 0.05709381 -0.04368498
0002e0 e2 09 f4 bc 2a 40 95 bd 00 96 f2 bd c3 a0 44 be
       -0.029789869 -0.07287629 -0.118450165 -0.1920195
0002f0 77 5b 43 bd 0f 69 90 3d a7 89 94 bd 8d 7d f6 3d
       -0.04769465 0.07051288 -0.072528176 0.12035666
000300 57 21 31 bd b2 db f0 3d bc ca ac be 8b 8c 7f 3d
       -0.043244686 0.117606536 -0.33748424 0.06238989
000310 07 1b 0e 3e fd d0 d4 3d cc 9e 15 3d 55 7e d1 bd
       0.13877498 0.10391424 0.036528394 -0.10229174
000320 c0 6c 49 3e 89 50 5e be 97 4b 93 bd aa 64 c8 bd
       0.19670391 -0.21710409 -0.07192152 -0.09784825
000330 d3 c5 e2 3a 23 39 56 3c 90 df e6 bc c8 33 a3 3d
       0.0017301388 0.013075146 -0.028182775 0.07968861
000340 61 eb d0 3d 2f 0f 58 bd 11 a1 bc 3d 65 5a 1d bc
       0.10201145 -0.052748855 0.092104085 -0.009604071
000350 48 40 bb bd 16 31 8a bd ae 8c 85 bd e1 71 d6 bd
       -0.0914312 -0.06747644 -0.06520973 -0.104709394
000360 7a ad dc bd be 1d 50 be d9 b1 ef bd 48 a5 94 3d
       -0.107752755 -0.20323846 -0.117038436 0.072580874
000370 22 6e 74 3d 93 f7 5c 3e 21 c3 02 bd b5 1e e9 bd
       0.059675343 0.21578817 -0.03192437 -0.1138281
000380 dd 24 76 3d 24 0e e2 bd 29 84 09 be 89 2f dd 3c
       0.06009375 -0.11037853 -0.13429321 0.027000206
000390 11 6f 6c 3b 29 5e 84 bd 96 5b b5 3d ba 2c a5 bd
       0.0036076943 -0.06463272 0.08855359 -0.080651715
0003a0 af 7d 58 3d 92 c2 1a 3e ce 06 0c bc 84 69 1e bc
       0.052854236 0.15113285 -0.008546544 -0.009668712
0003b0 ca 55 56 3b 0f dc e7 3c 9f fc 36 be 6e 7c 73 3c
       0.0032704943 0.028303174 -0.17869805 0.014861209
0003c0 82 54 5c 3e 5e ec 01 3e 9c e4 47 3c 48 7f 93 bc
       0.21516612 0.12687823 0.012200501 -0.018005028
0003d0 4f 9e 09 be c5 ed 9d 3d 46 ad 60 bc 5c 1e 98 3d
       -0.13439296 0.077113666 -0.013713187 0.074276656
0003e0 01 e0 c6 3d 10 23 71 bd 97 b2 13 3e 32 6b 0e be
       0.09710694 -0.05887133 0.14423595 -0.1390808
0003f0 b2 d1 fd 3c a9 88 29 3d 1c f9 04 3d dd 40 c2 bd
       0.03098378 0.041390095 0.03246413 -0.09485028

interactions.0.conv.lin2.bias f4 [128]
000000 46 54 a8 bd cb 5b bf bc f7 c9 36 bc c9 af 50 bc
       -0.08219199 -0.0233592 -0.011156551 -0.012737223
000010 6b 03 36 bc 92 b2 ef 3b 91 6a 0f 3d 97 d7 45 bd
       -0.011109213 0.0073149884 0.03501374 -0.048301306
000020 33 b4 7f bc d4 6c 3e 3c c5 24 34 bd ff 98 8b 3b
       -0.015606928 0.011622626 -0.04398038 0.004260182
000030 1f ae ba 3c 9e 30 3d bd e8 c9 4c bd 6a 6e 3e bc
       0.022788106 -0.046188943 -0.04999724 -0.011623004
000040 60 45 48 3c 12 44 e6 bd 12 39 b0 3c 1c 2f e6 3c
       0.012223572 -0.11243452 0.021511588 0.028098635
000050 a0 c3 60 bc 33 1d 09 3d 0e a8 e5 bd f9 80 4c bd
       -0.013718516 0.033475112 -0.112136945 -0.049927685
000060 27 52 65 3d d8 b4 1b be 67 46 1f 3b b7 bb 39 bd
       0.05598655 -0.15205705 0.0024303438 -0.045345034
000070 1e 1b 81 bd 08 84 8d bd 85 6c 26 3c 1b d8 33 bd
       -0.06304 -0.069099486 0.010157709 -0.043907266
000080 05 50 79 bd b5 46 70 3d 4a f2 b7 bd 3f ba f8 bd
       -0.06086733 0.05866118 -0.0898176 -0.121448986
000090 ad e8 b4 bd 5b ad e9 bc b4 6b c1 bc 67 b8 9f bd
       -0.08833442 -0.028525045 -0.023610927 -0.07798844
0000a0 7a 4d 8a bd d2 19 74 bd 59 61 94 bd 0e fc 2a bd
       -0.06753059 -0.059594937 -0.0724513 -0.041744284
0000b0 48 b6 33 be 58 72 4c bd 1f 82 c9 3c 7a a7 49 3d
       -0.17550004 -0.049913734 0.02459818 0.049231984
0000c0 88 de 5f bc 51 f2 28 bc d4 e2 83 bc c8 66 b9 bd
       -0.013663895 -0.010311679 -0.016099371 -0.09052807
0000d0 46 f2 b5 bd c4 c5 03 be 70 f3 e7 bc d6 a1 04 bd
       -0.088841006 -0.1286841 -0.028314322 -0.0323809
0000e0 7c c7 8f bd e1 4b 4e bd ca 9f c7 bd e5 1b 7f bd
       -0.070204705 -0.050365333 -0.09747274 -0.06228246
0000f0 bc e2 85 bb ff 8e 87 bd 52 60 2f bd d4 19 b3 bc
       -0.0040858667 -0.06619071 -0.042816468 -0.021862902
000100 61 13 16 3d c6 0b d5 3c 13 af c6 3c b0 2c 81 bd
       0.036639575 0.02600659 0.024253404 -0.063073516
000110 0a 5a a5 bc 0c 17 9b bd bd ec a0 3a 4a 3d 9a bd
       -0.020184536 -0.07572755 0.0012277585 -0.07531221
000120 46 a6 6f bb c9 2c 17 bd 2d 05 f6 bd eb 3e 09 bc
       -0.0036567613 -0.036907945 -0.12012706 -0.008376817
000130 fe cc bb 3c 37 53 14 bd b7 1f 4b 3d 51 0f 57 bd
       0.022924896 -0.036212172 0.049590793 -0.05250484
000140 7a 23 eb bd 9a 9a 62 bd 34 f4 38 bd 14 05 97 bd
       -0.11481376 -0.05532322 -0.045154765 -0.073740155
000150 6a 5c e4 bb 03 1e 05 3d 50 f0 91 bb 75 34 39 be
       -0.0069690244 0.032499325 -0.0044536963 -0.18086417
000160 92 96 d4 bd c2 9f 30 bd a6 d1 99 bd 4e 21 e8 bd
       -0.103802815 -0.043121107 -0.075106904 -0.11334477
000170 16 ea ba bd f7 41 9f bd 71 a6 04 3d e1 df 5e 3c
       -0.091266796 -0.07776254 0.032385293 0.013603182
000180 f6 16 6e bb 20 c1 87 3d 3c 9f b3 bd 65 a1 51 bd
       -0.0036329604 0.066286325 -0.08770606 -0.05117931
000190 31 5a 77 bd d8 ca 6f bd 89 9d 96 b9 ff c7 41 3c
       -0.060388748 -0.058543056 -0.00028727602 0.011827468
0001a0 d8 40 b7 bc 24 0e 71 bd 78 18 8b bd 12 c3 25 bd
       -0.022369787 -0.058851376 -0.067917764 -0.040469237
0001b0 ad 6b 2c 3c 12 ae 27 bd c3 81 6e bd b0 d2 36 bd
       0.010523719 -0.04093749 -0.05822922 -0.04463452
0001c0 43 e0 32 3c e1 c0 1f bd fe 9d 34 bd 8f 1f a8 bd
       0.010917726 -0.039002303 -0.044095986 -0.08209144
0001d0 48 2a f5 3c fc 3c 5b 3d 89 b2 f0 bd 50 ae 91 3c
       0.029927388 0.053524956 -0.11752803 0.017783314
0001e0 ca dc 83 bc 9c d6 88 bc 03 3e 35 3d 63 d3 8f bc
       -0.016096491 -0.016703896 0.044248592 -0.017556852
0001f0 cd e2 17 bd 04 3c de bd 8f a1 f0 3b cb 58 87 bd
       -0.03708153 -0.10851291 0.007343478 -0.06608733
